…
|    loss                 | 1.49e+03    |
|    n_updates            | 1460        |
|    policy_gradient_loss | 0.00449     |
|    value_loss           | 391         |
-----------------------------------------
2025-10-30 23:17:18,882 - INFO - Saved model to ppo_trading2.zip
2025-10-30 23:17:18,882 - INFO - Model structure: TransformerPolicy(
  (features_extractor): None
  (pi_features_extractor): FlattenExtractor(
    (flatten): Flatten(start_dim=1, end_dim=-1)
  )
  (vf_features_extractor): FlattenExtractor(
    (flatten): Flatten(start_dim=1, end_dim=-1)
  )
  (mlp_extractor): None
  (action_net): Linear(in_features=32, out_features=3, bias=True)
  (value_net): Linear(in_features=32, out_features=1, bias=True)
  (transformer): BTCTransformer(
    (input_proj): Sequential(
      (0): Linear(in_features=7, out_features=32, bias=True)
      (1): LayerNorm((32,), eps=1e-05, elementwise_affine=True)
      (2): ReLU()
      (3): Dropout(p=0.1, inplace=False)
    )
    (pos_encoder): PositionalEncoding()
    (transformer_encoder): TransformerEncoder(
      (layers): ModuleList(
        (0): TransformerEncoderLayer(
          (self_attn): MultiheadAttention(
            (out_proj): NonDynamicallyQuantizableLinear(in_features=32, out_features=32, bias=True)
          )
          (linear1): Linear(in_features=32, out_features=128, bias=True)
          (dropout): Dropout(p=0.1, inplace=False)
          (linear2): Linear(in_features=128, out_features=32, bias=True)
          (norm1): LayerNorm((32,), eps=1e-05, elementwise_affine=True)
          (norm2): LayerNorm((32,), eps=1e-05, elementwise_affine=True)
          (dropout1): Dropout(p=0.1, inplace=False)
          (dropout2): Dropout(p=0.1, inplace=False)
        )
      )
      (norm): LayerNorm((32,), eps=1e-05, elementwise_affine=True)
    )
    (action_head): Linear(in_features=32, out_features=3, bias=True)
    (value_head): Linear(in_features=32, out_features=1, bias=True)
  )
)
2025-10-30 23:17:18,883 - INFO - Total parameters: 13220
action type: <class 'numpy.ndarray'>, action shape: ()
Warning: current_step 11 out of bounds, resetting to 10
2025-10-30 23:17:18,908 - INFO - Day 11, Step 1, Episode Reward: 0.0000, Balance: 10000000.00, Holding: 0.0000, Total Asset Value: 10000000.00
2025-10-30 23:17:18,908 - INFO - Action distribution: {0: 1, 1: 0, 2: 0}
…
